NG_ML/ex4/theta1.npy (npy, 80328 bytes, 1 tensors)

array f8 [25, 401]
00000000: 5001 9084 d939 c13f 0063 db45 a0f5 333f
00000010: 8045 bbea 665e 513f 0093 7601 4e69 203f
00000020: c0fa c510 79be 293f 0040 4da0 b100 dbbe
00000030: c75e 7b76 d36a 5d3f c084 7fe9 b5db 273f
00000040: c0f5 42fd 9f21 16bf 00a8 f4a3 1fe1 483f
00000050: 00c0 828f 51ab 2abf c04a e319 f496 50bf
00000060: 00f8 fae1 2640 513f 00db e156 1d39 273f
00000070: 00e0 d452 9221 15bf 00fe 2832 1d92 243f
00000080: 4066 6fe7 4aab 343f 801b 053b 3d83 343f
00000090: 00fd 2f16 e3a6 09bf 003d 078e 93a4 36bf
000000a0: 00f7 c344 3156 383f 802c a0de 83b5 453f
000000b0: 00db 8251 ad2c 343f 8017 832d dd92 34bf
000000c0: 00cb b741 24a1 06bf 8092 2365 6d74 2fbf
000000d0: 006e 04f4 41d2 5f3f a00a f995 cb75 533f
000000e0: d0ad 33b0 b113 903f a01d e719 a294 61bf
000000f0: 0060 dcd7 3454 f3be 0024 8bac 77e2 223f
00000100: 40b6 b15b 3d5f 50bf a008 4044 2bc1 7ebf
00000110: 00d8 54da 745d 343f 681e aaf0 e53b 713f
00000120: e0ab 6222 684d 643f 0093 6a8f b96a 21bf
00000130: 4083 2a75 248a 2c3f 0050 dd83 4fe0 033f
00000140: 004b 933c 1521 30bf 009d b3f5 2372 2a3f
00000150: 8042 4fd4 04d8 463f 0040 bc65 3375 3f3f
00000160: 80fc 252a cea9 30bf 506f 921e 5c27 6f3f
00000170: 8574 1f4c 5ba3 b3bf 00b8 17d2 a813 763f
00000180: 939f cfe2 02f5 a1bf 18be 674e 0c5d d33f
00000190: f6cb 6ec1 c462 c03f 229c 8ee6 1de7 b13f
000001a0: 3d2b 6c3e 5b05 b73f 5201 988e 3f0b adbf
000001b0: 3e61 51ff b24c c2bf eb23 f0ba 3998 a03f
000001c0: b023 9d63 7096 9d3f a099 b33b 1592 7d3f
000001d0: 0030 51e1 2b46 fd3e 80a2 9187 223e 4d3f
000001e0: 0054 3a5c 5906 323f 0033 8012 0d34 3a3f
000001f0: 0036 f657 179e 3dbf 00ec 22f4 86f4 463f
00000200: 005e 28fc a6ca 473f c4ef 9b24 0089 bcbf
00000210: bfc0 6c41 91dc d03f 6e65 fb2b 533a b7bf
00000220: c065 b0e3 8e19 9fbf 30ad 01c3 dee2 9fbf
00000230: b700 05ab 2982 b93f 1078 ee7b b784 87bf
00000240: 42dc 8704 1a39 c3bf 3ad1 e587 9061 c3bf
00000250: 2f87 3bc4 764c d5bf eab3 b046 3d87 a03f
00000260: 3020 edd4 398c d13f 9811 88d9 870e cabf
00000270: f165 59d8 4efe cdbf a8e2 fcbf 9c00 7a3f
00000280: 00b0 3a1f 8288 08bf 8066 1fb0 65a1 44bf
00000290: 001a a5e6 2186 333f 0085 ac0f 2202 8e3f
000002a0: 3c3f 97d3 7394 b93f 907f 983e 39f7 d53f
000002b0: f714 a0ba f13d e63f 2880 7a4f e2cc d3bf
000002c0: 7d63 3eb8 fa49 e2bf dd03 fc9a 99fa bdbf
000002d0: b2c3 41dd 659e c43f d41a 9a1a aa13 b0bf
000002e0: 387f dc06 248a 8a3f 709a 729c 3acf c4bf
000002f0: e12f f888 6cfd c03f 57a3 82ec 8b67 e3bf
00000300: 6268 1004 4293 c03f a897 9e7d 6339 803f
00000310: 7afe 2487 3087 d1bf b2c4 f22e e2a6 b13f
00000320: e0db 6fd3 89ab 693f 0034 68c5 be01 513f
00000330: 2051 2999 4a92 743f 80d0 6034 081a 4c3f
00000340: 1608 7f39 8e6e babf 49f7 66e8 ef65 d33f
00000350: 707d 8784 1ff4 80bf bc60 d043 6755 c43f
00000360: 0eb8 158d 19d0 95bf c758 7690 3f4a d53f
00000370: 4ee6 e890 c351 aebf ea3b 0a6a e75c d1bf
00000380: 5e4c 45c9 f2d1 c3bf a695 537c 1bf0 d93f
00000390: 35fc 61fe 21e4 a6bf fe31 3979 dc0e c5bf
000003a0: 41fa 7959 9f5e d1bf 03b5 2d9f e95e bdbf
000003b0: 6068 e02d c119 8ebf 709f 72f9 7723 6a3f
000003c0: 56af 2609 070d 853f 80ca 8e65 f3ba 343f
000003d0: a0ef 2db3 f62c 7c3f a0bb 41de 090f 983f
000003e0: adc1 4266 77c5 b93f 63fd d8f7 e226 d63f
000003f0: 7cfd 06d5 1cb1 9fbf 0c70 4c8e 6050 cabf
00000400: 1605 e6b9 1030 d1bf 3cd4 0d76 0743 b6bf
00000410: 07cb 1266 0d52 e3bf 7c07 da02 cdb8 a5bf
00000420: 8151 ffc3 24e8 c7bf 1697 5949 39fe c4bf
00000430: c8e3 21cc af84 c3bf e622 ca50 08f2 d0bf
00000440: 67f9 ac93 9961 c3bf 3d61 0254 da39 b93f
00000450: 1243 04a7 70e4 c03f 303c f1b1 181e 873f
00000460: e043 aed9 64b4 683f 00f3 12cb 831f 2a3f
00000470: 1440 7b93 c81b 893f 25d7 53f6 6f48 b7bf
00000480: 11cf 9e4f 64e9 cabf 1729 3d03 d93b dabf
00000490: bce2 a676 732e babf d8d0 4bb1 d0d7 683f
000004a0: 4007 6dcc 2c70 d2bf 3ab8 d312 d5fd dbbf
000004b0: ec51 86f6 dbba d4bf 32e4 ab8f e8b0 d5bf
000004c0: 1c12 0bdb c004 873f e545 4641 0310 cabf
000004d0: bd8e 8333 1c09 ab3f 3c8c c475 61e7 db3f
000004e0: 54b9 03df 14c6 d03f 8236 2a76 b505 d0bf
000004f0: 0a8f a738 b462 d0bf e2d2 6dcc cc5f c2bf
00000500: 14ca b166 cd6d be3f 0078 cc3d 8735 343f
00000510: 40d5 6b12 b1c2 773f fa6b 6e10 2388 d2bf
00000520: 34f7 93b7 6f41 943f 8c4d 7453 ddd1 e8bf
00000530: cb86 6df6 cd8e dbbf f757 d69c 7a3f e6bf
00000540: 2718 4dd7 3333 dbbf cf6c 44dc 677f e4bf
00000550: 8adb c2d9 8460 e2bf 9276 8b53 f4dd cf3f
00000560: 5284 bfc8 0aa5 763f 7e3f 97de 6976 a63f
00000570: 44a4 79cd 16ec ce3f 3d15 f7a2 d25d d23f
00000580: b0b5 497e 1201 dd3f b79f d99d ca85 e4bf
00000590: 61b9 6050 d1b4 c3bf d12b eefc c2be c73f
000005a0: 0cda 468d c8cf bc3f 0053 55ae 797a 233f
000005b0: b8fd 2bb5 0c02 833f 0e04 cc4c 1e4f ac3f
000005c0: ed21 3ef6 22a5 e53f a232 b711 46c6 e7bf
000005d0: 6573 24cc 40da d6bf 646c d044 87ae debf
000005e0: 3006 acef 530d a03f 7f36 6988 2a8b ce3f
000005f0: 212a cd7c f0c8 e1bf 5b54 2467 3106 c6bf
00000600: fd2e a2f1 e157 d13f 6afe 549e 33c1 df3f
00000610: 0458 d641 8647 983f 5402 989b 58ca d43f
00000620: f4e9 d8e9 fa3a ab3f 8a7c 6960 1ece c0bf
00000630: 611f 223a 7c6b d2bf ac53 6e08 6a2d bc3f
00000640: 86df 6e8a e327 ad3f 0088 4d8c b02d 4abf
00000650: 526b 21fb e074 a23f 5701 a1dc 60fd d43f
00000660: c7f7 c1df 8b62 d93f 1c66 2399 ea2b d0bf
00000670: 0574 4339 067b c3bf 82c8 f435 53e7 d73f
00000680: 6e55 5899 ff75 db3f 8f68 2e84 061b ca3f
00000690: 5cbb f55f 5eb3 c6bf 9094 25cf 865b d7bf
000006a0: 7704 7e93 c1f3 b43f f4ec 814b e8fe de3f
000006b0: 955d 728a d81f c33f 6061 0252 3ced c63f
000006c0: ee9b 3e55 90ad b2bf 38d0 098b c2d9 e6bf
000006d0: bf75 d04b 9d8f e0bf bca0 ab45 faa4 c3bf
000006e0: 24b6 7264 76ef a83f 005c 00bd 1a16 08bf
000006f0: 5299 defb 0182 ad3f 5463 6b89 2720 acbf
00000700: 3abd 3a36 3c3d c5bf 882b 3b17 acb6 dfbf
00000710: 54b3 0855 f7f3 c7bf 8419 ae4b 44b4 9c3f
00000720: db38 695d 0c18 e33f 43e1 e4a1 cc89 e43f
00000730: 2ec9 0ca6 02f7 b9bf 2b0f 64ee 1fc8 b53f
00000740: 4572 af78 84ad dc3f a652 c32e 0791 bcbf
00000750: b4a3 1a03 af27 bdbf 936f cecf 8f1a b1bf
00000760: f270 ba36 29ad c8bf 239c 5863 0adb d5bf
00000770: 68d7 b275 c81d d2bf 7faa 6495 dc7e b0bf
00000780: 8040 a9ce 3dc6 583f 805d 2f8c abd1 313f
00000790: a8eb f4c9 ff03 843f 8b0f d7af 76a3 b5bf
000007a0: aa27 d957 897f e1bf 97e3 5474 797a d9bf
000007b0: 59f8 2fde b5b1 cb3f faf1 d288 61fe d83f
000007c0: 125d ac5f d5a1 e43f 1417 e9ea 043c d53f
000007d0: c94a 40a0 7492 ce3f 3593 0b3c 0d47 d53f
000007e0: 123c 041b 577d dc3f 327a 2207 ce05 c53f
000007f0: 03d2 0494 3a05 c63f 59a9 0eea d22c d23f
0.13457793209819124 0.00030455744659500794 0.0010601048515364864 0.00012520863741118798 0.000196411398416493 -6.437947836016034e-06 0.001795488840732705 0.00018202396017755716
-8.44243907662445e-05 0.0007592586988824923 -0.00020346994984299371 -0.0010125526237529242 0.0010528926576820474 0.0001771782221486537 -8.06088980497277e-05 0.0001569424285481208
0.0003153856154632685 0.00031299824606317167 -4.892712129133704e-05 -0.0003455028763967444 0.00037134840819406933 0.0006625074286160798 0.00030783873945543216 -0.00031392955635244774
-4.3162268607141105e-05 -0.00023998103512847327 0.0019422191690584567 0.0011877525465854646 0.01570012700987694 -0.002146069148895882 -1.843350536664956e-05 0.0001440783583091243
-0.0009992694092732096 -0.00750843907371937 0.0003107462201400457 0.004207514003276104 0.002478316676464129 -0.0001328803552570687 0.0002177400115970455 3.7910868271012754e-05
-0.0002461125228140765 0.00020176590883311946 0.000697138174127046 0.0004800081712668103 -0.00025426181141336573 0.0038029479224643073 -0.07671137436359927 0.005389842468032313
-0.03507241266907992 0.30255420357477325 0.12801417775116847 0.06993281248888697 0.08992548250186601 -0.05672644248625382 -0.1429656740826974 0.032411388463579126
0.028894191818185255 0.007219393675063662 2.7917964036824894e-05 0.0008924168206592836 0.00027503663680167323 0.00039983100077804756 -0.0004519278517925718 0.0007005366280944392
0.0007260623318101067 -0.11146546262528917 0.2634623660005779 -0.09073371719150256 -0.030370934149777318 -0.031138878490691357 0.09964237618715087 -0.011483605832662419
-0.15018010350442706 -0.15141493449812932 -0.33279198802312043 0.03228179443281205 0.274183710037053 -0.20356844064384627 -0.2343233639137874 0.006348240189077238
-4.679343319699547e-05 -0.0006295916102729421 0.0002979119077689829 0.014652505973176577 0.09992145458022333 0.34321433174954397 0.6950615544343738 -0.30938012849401497
-0.5715306852826952 -0.11710510286140115 0.16108392051276393 -0.06280005597555355 0.012958795031920198 -0.1625741256622919 0.13273388565028113 -0.6063899630872623
0.12949395368997602 0.007921960135558084 -0.273876316048678 0.06895269056510037 0.0031335536873444564 0.001038013744280919 0.005022326850469022 0.0008575954495939758
-0.10324944404331435 0.30309674926308056 -0.008278127891513803 0.15885630427579212 -0.021301650272498356 0.33265675647397724 -0.05921755927961368 -0.2712954078241966
-0.15484461620016793 0.40527999058971387 -0.04470926504381404 -0.16451602858650455 -0.27140029657303805 -0.11472950111575035 -0.014697560513060093 0.00319074089528109
0.01027875420262318 0.000316318915390891 0.006878818198739284 0.023494867506481776 0.10066934820748115 0.34612344936245715 -0.03094906854835021 -0.205577916604739
-0.26855867532874933 -0.08696028358629432 -0.6037661546345995 -0.04242554340181834 -0.18677196092779627 -0.16400829392949196 -0.15248677699471913 -0.26477249040230644
-0.1514160128662738 0.09853901434906205 0.1319714370261172 0.011287873201721949 0.003015706036827201 0.0001993034725610507 0.012260024071480337 -0.09094905628066081
-0.2102475537081934 -0.4099028140668834 -0.10227128645682176 0.003032596209204024 -0.2880966183039284 -0.4373676952226365 -0.32390498232532994 -0.33892263441481696
0.011239535031003327 -0.20361366927367822 0.052803880012814976 0.4359973573757008 0.2620899370075638 -0.2503484395937009 -0.25602441342037763 -0.14354858381161423
0.1188629508704156 0.0003083663157655847 0.005800906836829711 -0.28955914120314186 0.01978087003680358 -0.7756182317702254 -0.4305910975000244 -0.6952488959529991
-0.4250001528311053 -0.6405524541945854 -0.5742820981166556 0.24896101073584426 0.0055284901863795356 0.04387217371151929 0.2415798667236989 0.286976489206001
0.4531904443054726 -0.6413319666871676 -0.15395561623285928 0.18550908422579807 0.11254552315845262 0.0001486085449565952 0.009281253127027309 0.0552911251779805
0.6764082726886592 -0.7429533334739811 -0.3570711129739748 -0.4794023677838537 0.03135168362315388 0.2386220136708523 -0.5557787358787359 -0.17206399475313358
0.27098892781280864 0.49616709196195663 0.02371034409369345 0.32485022730546587 0.05318435768682042 -0.1312902422677989 -0.2878103797634051 0.11006796556314552
0.056944952629634435 -0.0007989036608757605 0.036047964721282924 0.3279649881915438 0.3966397938855803 -0.252680444287394 -0.15219190403050234 0.3734939600864281
0.429077052832631 0.20394975141681868 -0.17734889684239874 -0.36496134022883897 0.08184442377934596 0.48430831311971123 0.14940935859770535 0.17911485676155348
-0.07296087342420751 -0.7140820232002687 -0.5175310593364698 -0.1534722175777058 0.048701953660707425 -4.594105814719612e-05 0.05763250541285693 -0.05493281891330662
-0.16593125007555348 -0.49552442806878405 -0.18713275577592958 0.028031413191933932 0.5966855835374888 0.6418212091439631 -0.10142532876924257 0.08508491106118458
0.4480906656806705 -0.11158795253443063 -0.11388677430899358 -0.06681155036352342 -0.19278445408134065 -0.3414941759278369 -0.2830678128624329 -0.06443575522704668
0.00151210819116801 0.0002718967263581548 0.009773252821664816 -0.08452550690623022 -0.5468184200083119 -0.3981002460528144 0.2163607916735966 0.39052618371695724
0.6447550648325964 0.3317882818267759 0.23884446930659056 0.3324616514567425 0.4451501621087469 0.16423964832661536 0.17203457095605765 0.28398583275943207
