ex4/theta2.npy (npy, 2208 bytes, 1 tensors)

array f8 [10, 26]
0	0x3fd17a8b3d2bd75b	0.27310448621516564
1	0xbfd95cef285cb341	-0.39629725400554966
2	0xbff381b1994cf91e	-1.2191635120685258
3	0xbfcff28a79ffe72a	-0.2495892615987086
4	0xbfe5097fb614ff60	-0.6574095302857863
5	0xc003fea3a68702f6	-2.4993355760528813
6	0x3ff37cde355c0877	1.2179853519778854
7	0xbff8c3d190b8b1a2	-1.5478072789365815
8	0xc0139f7d1baee30d	-4.905750687169314
9	0x3ff994aae1de1893	1.5987957785560283
10	0x40062aa0e3efdbb4	2.7708146865438383
11	0xbfee384e30f8e486	-0.9443732220162395
12	0x3fd451002dff8a94	0.31744389049541977
13	0x3ff6951d8e6f71de	1.4114051402931334
14	0x3fd5b004b1f0b8b8	0.33886830689415204
15	0xbfd9439cd1dbf88b	-0.3947517442137573
16	0xbfd22bfd132c383a	-0.2839348494752617
17	0x3ff7505513b37ded	1.457112385709361
18	0x3ff84cf256253008	1.518785797600687
19	0xc0045c0ef8815356	-2.5449504293887157
20	0x3febf2963b976afb	0.8733626521965044
21	0xc010a685c439cc38	-4.162619653728193
22	0xbfbd77e8feaece89	-0.11511093347399472
23	0xbff3a2c4c7620aa1	-1.227238444175477
24	0xbff932f4ed03d3f3	-1.5749406107327075
25	0x400390296f4c11dd	2.4453915305223135
26	0xbff9ca361a031be0	-1.611868001565874
27	0xbff5f3e22104620c	-1.3720418252688686
28	0xbfe091460d5321b2	-0.5177335987328233
29	0x3ffc01783d73a257	1.7503588104683752
30	0x40021c0753c56e71	2.2636858505846296
31	0x4003d3ad046f8a0e	2.478357348112019
32	0xbfefa85f5429fbd7	-0.9893032687976938
33	0xbfe0f1b41e83a682	-0.5295048328382139
34	0x4001a319b652fa75	2.2046388858864767
35	0xbff3172fec898da5	-1.1931609382380455
36	0xc00fdaa809fe18ea	-3.981765821520743
37	0xbff684283c7f02be	-1.4072649348383233
38	0x400a5a0602cb5aa8	3.293956777411342
39	0x3ffffdc1ad8aa40a	1.9994522837607769
40	0xbff94ae433d3388e	-1.5807840370576147
41	0xc00b6d8c66c3d8f4	-3.4284904507177263
42	0xbfe5335b3d42bc44	-0.6625190922258146
43	0xc00445756f751f96	-2.5339153964632244
44	0xbf970908773eba7a	-0.022495395925654617
45	0xbffa6e665760cf58	-1.6519530690392994
46	0x3fe1df1ddf52e37a	0.55848592393805
47	0xc00b8561dc528157	-3.4401280605963325
48	0xbffc44f2c5acbdd1	-1.7668330880804783
49	0xc0001c3477045615	-2.013771943874199
50	0x4008cb3a0f797d80	3.0992318352652433
51	0xc01109ff637530b2	-4.259763292339061
52	0xbff153e4d3216c20	-1.082981896141753
53	0xc006008194e358d6	-2.75024715727623
54	0xbfe956cf062c5e43	-0.7918467636654402
55	0xc01017af3f506075	-4.023129452973184
56	0xbfe69642df43f6bc	-0.7058424339918115
57	0xc0007970efe93214	-2.0592974417725234
58	0xbfe1bffd4b3c256a	-0.5546862096245324
59	0xc01296fd1a7c116a	-4.647449888060104
60	0x3ff3c1478d6042c7	1.2346873781681766
61	0xc000ecd918231631	-2.1156484494884116
62	0xbffbe41eb18b7bf6	-1.7431933341356376
63	0x4003f3098dff5991	2.4936705678512188
64	0xc006036195d8b100	-2.7516509730104417
65	0x3ff29e370fa832f0	1.163626729164374
66	0xbfe525dc9cff5313	-0.6608717981676783
67	0x3ffb8860b4ee2f8c	1.7207953517526873
68	0x3fe28174f43f5a49	0.5783028383692194
69	0x3fe4887f0e624d88	0.6416621476113713
70	0xbffdf7eb9e4b8895	-1.87302743753438
71	0x4001c261b14c728a	2.219912896295061
72	0x400ce26eec1f0a0a	3.6105631300899903
73	0xbfe86554976e9ce0	-0.7623694379480206
74	0xc005ae376117a008	-2.710066565068704
75	0xc001f5e586fef9d7	-2.2450666948854905
76	0x3ff58eeed5ed5779	1.3473957401779144
77	0x4005e6e60463876b	2.7377434103845437
78	0xbfd47e3a57856aa0	-0.3202043394755183
79	0x3fb65a7ca8f28dc4	0.08731822132772665
80	0x3ffa4d1c89c1de85	1.6438260441917987
81	0xbfe7e88f87789df2	-0.7471387525483222
82	0x3ffc64fc5f9208b9	1.7746547444553882
83	0xbfd96f415f210d8d	-0.39741548814728206
84	0xc0139a6c9f00be8b	-4.900804981632642
85	0xc007b4c4656183dc	-2.9632652206787338
86	0xbfdbf606fb357388	-0.4368913129053955
87	0x3fdd348b59213b7b	0.4563320513161028
88	0xbfb71b5b0c32c8dc	-0.09026116416751812
89	0xbff39f3f95f84afb	-1.2263789995383252
90	0xc0050593b86db234	-2.62772316059843
91	0xc003ada2c40bba51	-2.4597831073836365
92	0x401145f36c4cdcc5	4.318311397734935
93	0xbfd566862b61a04b	-0.33438257442913216
94	0x3ff0d9e9daf8be4d	1.0532015374737
95	0xc00ac8985b636ac8	-3.3479468478884407
96	0x3fefbba2bc9f84e0	0.9916547473950708
97	0x3fe25290a3c763f7	0.5725787352376973
98	0xc002a361289ce1a1	-2.3297751591564553
99	0x3fb795b3799e07e5	0.09212800711796339
100	0x3ff632c92b605bd2	1.3873988813772837
101	0xc00e5b5e99e03996	-3.7946140309861205
102	0xbffdc8899ffce102	-1.861459374382378
103	0x3fb2c05d7b3f4b6c	0.0732477594276994
104	0xbfe807384276a9a2	-0.7508813188663235
105	0x4001fe2722aca2ba	2.2490980824407787
106	0x4003908e465861d0	2.4455838676187582
107	0xbff152c4afddbd2c	-1.0827071065685443
108	0xc00a4b89767a89f5	-3.286883283247557
109	0xc00d618f2ee44293	-3.6726363814744416
110	0x3f63424d69cae8cc	0.0023509513833604775
111	0x3ff9befbd9a7bd87	1.609126901832356
112	0xc00d3b11721aafe5	-3.6538418688196423
113	0x4009dd3bcfd3e61c	3.233024238256588
114	0xbffeb096dd31dc8c	-1.9181126251621974
115	0xc00df280e8fffb6c	-3.7434099391097586
116	0xbfe0dec886309aba	-0.5271952267547342
117	0xbfd0b3e23bff7b72	-0.2609792314450977
118	0x3ff733db8fe14afd	1.4501605625452492
119	0xc008132f35217af0	-3.0093673849909166
120	0xbfd2a033ad516e7b	-0.2910279457625859
121	0x40000a01997a5bb3	2.0048858633485565
122	0xc007cc0c4a56c2eb	-2.974632817051647
123	0x3fe8a5409a135e97	0.7701724061289096
124	0xc001ccb27ccc54cf	-2.2249498128754577
125	0x3fea45f9fd4bb509	0.8210420558149575
126	0x400762563f08ec70	2.92301606412871
127	0x4002d0584c9fd664	2.3517309175756953
128	0x3fef28765d4036bf	0.9736892529778841
129	0xc00e0786bbe19bbb	-3.753674953291435
130	0xbfe1d849c36851f6	-0.557652360587382
131	0x3fe8582bbda74861	0.760763044754878
132	0xc00d52c41ecb1049	-3.665413132259378
133	0xbff9763f1fbd82aa	-1.5913687934736722
134	0xc0045717ef5a95f1	-2.5425261210937085
135	0x3fff5f602abaced7	1.9607850712899813
136	0xc00ca3207c198a4b	-3.579651803521562
137	0x3ff58a81b188fbe9	1.3463150916065791
138	0xbfe29c7a520a8de6	-0.5816012956969956
139	0x3ff1e6e225fc5de9	1.1188680156536697
140	0x3fe422a431a27dc6	0.6292286843708375
141	0x3ff959982910b27e	1.5843736271009727
142	0x3ff9a62291023517	1.6030603088759727
143	0xc00393d452507be9	-2.4471823149501586
144	0x3fead9bdc9770bae	0.8390797552932463
145	0x3ff852707266c600	1.5201267689520819
146	0xbfd4d8f5d30baa0c	-0.3257422028533774
147	0xbfeeafdaff4c8980	-0.9589667307193821
148	0xbfa37cc8c233e4e6	-0.038061402994523694
149	0xbff3a71c641a059b	-1.2282985601635577
150	0x3fa196ed70f7b475	0.03435461048125258
151	0xc006c00ef18ce3f0	-2.843778502571233
152	0xbffad6d2450e42fa	-1.67744662260901
153	0x400894052ac21be7	3.0722754803168644
154	0xbff98d9105dbfd34	-1.5970621327285928
155	0xbfd31310f8850188	-0.29803871411788707
156	0xc002299a73284d64	-2.2703141209291733
157	0x3ffb2517eadd8d46	1.696556012576211
158	0x4004f7916be43879	2.6208828381559752
159	0x4000a11979099e6c	2.0786618667660175
160	0xc0018f5d10ebea8c	-2.195001728248206
161	0xbfd370024e722444	-0.303711487395564
162	0xbfeb5ef21d206219	-0.8553400582196132
163	0xbfe7e0ec35411e55	-0.7462063827633282
164	0x3ff0705c4559dbf8	1.0274317463897642
165	0x3fd3c5b29c74aca7	0.3089415099991108
166	0xbfc0c4a67fbf42ac	-0.13100129354144963
167	0xbff4806e3b20230c	-1.2813551244345858
168	0xbffeb57ebf93d72b	-1.9193103297706766
169	0x3ffc938f570c3174	1.7860253715799361
170	0xbffd681f1a54303d	-1.8379202869864593
171	0x3ffd23240c7b0c53	1.8210793006444603
172	0xc011ddddac11abc9	-4.466665924624018
173	0xc007a4b4c4621546	-2.955422910922297
174	0x3fce991120a51e20	0.23904623121255586
175	0xc012717a47b57576	-4.610818024111145
176	0x400a245aa6dcf737	3.26775102960428
177	0x3ff7950aeac84cf6	1.4738873645008517
178	0x40001497f2c14661	2.0100554433090996
179	0x3fd097f1ba3bb244	0.2592739409144864
180	0xbff5dcf1d3232ea1	-1.3664415595584745
181	0x3ffa60f17c6a6012	1.648667798994215
182	0xc004da7fe40a9fee	-2.6066892448179635
183	0xc003bec8797ee63d	-2.4681558124400724
184	0x3ffd32209579b0e8	1.8247381056672172
185	0x4009e73f626669ad	3.2379138648513703
186	0x400845098078b429	3.033709529574953
187	0xbfb7c66e5242076c	-0.09287156589746609
188	0x3fef116f7f2ea2b4	0.9708783611323129
189	0x3ff590cfaafc9b4e	1.3478542975587575
190	0xbfff4c22d39db3da	-1.9560879007578849
191	0xc0004e51e6801975	-2.0382421501009795
192	0x3ff5a2d5dd413361	1.3522547381173455
193	0x400ae1fcbf472eb7	3.3603453582380456
194	0xc00b476415c2867a	-3.409858865736905
195	0xc0102506426d8ae2	-4.036156690536446
196	0xbf9295ec700c2887	-0.018150038088642375
197	0xc001142cf67a9e71	-2.1348513847513506
198	0xbfeb58981923dedc	-0.8545647135751682
199	0x3fe99728f25ac501	0.7997021420943896
200	0xc011618a16d72392	-4.345253331070937
201	0xc00a76d023d20c9e	-3.3080141828991847
202	0xc0060d0f8b224007	-2.7563773031070045
203	0xbfdce89810cf030a	-0.45169641152828943
204	0xc00cd356e714cb2d	-3.603193097421715
205	0xbff7e3983eedc947	-1.4930651147993375
206	0x40003e9ab82223f3	2.0305685410899
207	0xbfd3a5e62e97a786	-0.30700068044699724
208	0xbffaaee65c5d66d0	-1.6677001579286532
209	0xc001ddcb14963bb4	-2.233297501406435
210	0xbff4473f2ed80cc7	-1.2673942403642273
211	0xbff9a4954691a69f	-1.6026814228629644
212	0xbfb859b1079e74c0	-0.09511858402261719
213	0xc0069c9927fe355f	-2.826463997311904
214	0x400b8c3bf457ed52	3.443473729070015
215	0x3ff3bb6d3fe84ec0	1.2332584854492978
216	0xbfe345ecba35abea	-0.6022857319743455
217	0xbff147fbd00f524c	-1.0800741317117568
218	0x3ffc18cd36319b40	1.7560550801224082
219	0xbfd9ad474e5f3289	-0.40120108273985317
220	0xbff2624fb0856556	-1.1490017791132536
221	0xc00c4c621cb79a10	-3.537296509125788
222	0xc0198946b25cf1d9	-6.384058749125381
223	0xc003e25c28ce8c76	-2.4855273426088003
224	0x3ffcd61ad299ffad	1.8022716738341658
225	0xc0060fa7fc74fe3b	-2.757644626922937
226	0x40119fcf07d5546b	4.406063196559539
227	0x4008b4062cd5257e	3.0879024031207214
228	0xbff756dec860fe7c	-1.4587085559177515
229	0xbff64e935cfb38de	-1.3941835052569824
230	0x4000ef3d73b62515	2.116816429134483
231	0x3febb364e92afa48	0.8656487039623437
232	0xbff1c3b4a02c50a6	-1.1102796799432695
233	0xbfee1e87b0003cde	-0.9412268102186336
234	0xbffc37bae149fbb7	-1.7636059570647669
235	0x3fe6c58cc910f9ae	0.7116149832798351
236	0xbffc884331d8b647	-1.7832672068719988
237	0xbfe4dcee93128e06	-0.6519692299374931
238	0xc002aec25dad3d2f	-2.3353316610806796
239	0x4001f2148e1b63ed	2.2432032682522647
240	0x3fbf3de6ff1169be	0.12203830458876205
241	0x3ff2218ffbbfd634	1.1331939538917029
242	0xbfe1db17abc0c3c3	-0.5579946856070069
243	0xc00d694b3e7a32de	-3.676413047889908
244	0xbffe3a59a4d6d82c	-1.889245647338167
245	0xbfee7c274618fc6b	-0.9526554459661275
246	0xc00227646d83b2a6	-2.269234519559478
247	0x3fd9b816a2dd81b9	0.4018608656388341
248	0xbffebcd0c458d492	-1.9210975332073628
249	0x4008c2caff34dcbf	3.0951137483603754
250	0xbfd5b4389b3b96de	-0.33912482413721345
251	0x3ffaf7dfc7e772e0	1.6855161484483503
252	0x3fd1b3f384883bc6	0.2766083521136661
253	0x3fe6615260b5e3c3	0.6993801010968287
254	0xc0071893983755f5	-2.887000264347757
255	0x3fff7b7d47a90afe	1.9676487731200605
